ipynb/model_v1.pt (torch, 970054 bytes, 9 tensors)

weight f4 [32, 3, 3, 3]
00000000: 07e0 183e df75 303e 4f5e 2b3e c94e 623d
00000010: 3192 85bd 23bf 133e 9694 0fbd 6ead 07be
00000020: fcfb 0bbe 1a2f f7bb 8cc8 7ebc bd6b 9b3d
00000030: 13bb 10be 25d5 0cbe bcf2 32bd 172d 9bbd
00000040: a4b4 0fbe 3d42 753d 3df0 1e3d 7845 0fbe
00000050: 5d32 9fbd 9bd2 1d3e ecbd a9bc a5db 023e
00000060: 45de fc3d 2b4a 3c3c f623 003d f433 aa3c
00000070: 666d ee3d 9619 42be 8d92 123e 3731 b63c
00000080: f315 b5bd 88a8 1b3e 843d 043d 3343 2dbe
00000090: 9bb8 4fbe aec9 873c 67a0 3bbe 3827 8c3d
000000a0: 7d5f 14be 6c4d 623c 808b 203e 2507 773d
000000b0: d06e 2a3e fce4 13bd c54f 14be aa8d efbc
000000c0: dca3 bf3d d690 0ebe 6e15 343e ba96 17be
000000d0: ecd0 fcbd b955 b6bd 7d1d 07be 4c32 a73d
000000e0: 1148 f73d 7916 cc3d 36a1 c63c e7aa 96bc
000000f0: b4a6 053d 69e2 21bd feba 073e 3c36 36ba
00000100: 4d68 40be 380f 3fbe d7e4 10bd 53e2 ffbb
00000110: 2c20 e0bd d595 3cbe 34e2 90bd bec2 1c3e
00000120: 3f0e 03bd 31b6 38be eb2d a2ba e4af f7bd
00000130: dce5 8e3d e1ce 123e 498f 043e bd5a 793d
00000140: 6444 f3bd df90 0cbe 7989 cebd 965d 68bc
00000150: 9cd7 9abd bb49 45be f723 d33a 40ef 193b
00000160: bb98 c3bd 07de 3bbe 4201 363e fbb9 6cbd
00000170: c851 d4bd 6261 9f3d 67d0 2bbe 0337 6f3d
00000180: 5f09 2a3e 9a61 1bbe b92b 1cbe a496 e3bd
00000190: e851 8cbc fb30 043d 5e50 c7bd bda4 78bd
000001a0: dc32 25be eb36 a23d 76d8 1bbe 6679 acbd
000001b0: 6cf6 0bbd af61 2e3e d9c5 153e 28db d0bd
000001c0: e8f5 3bbe 6452 363e c7df 3cbd 6bf3 a3bd
000001d0: fbea 10be 954b aa3d bc84 f4bd 2946 b53d
000001e0: 512d 3ebe 5e85 b2bd 6f46 2cbd 9038 a4bd
000001f0: bf0a 9cbd 101c ef3d 6f2c 0dbe abf5 85bd
00000200: 3946 fb3d ce94 ecbd ce45 43bd 94d1 623d
00000210: 51bf 353e 06bc 45be dd60 193e 6d9d 033d
00000220: d0c1 1c3e 7aa0 45be 6f56 bcbd 3129 2abe
00000230: 1104 853c 9400 11bd 49dc 0fbd 8d4e 02be
00000240: 5e6d 39bc b9a2 31be 80ba 743d 4674 613d
00000250: 6581 3e3d 6157 f5bd 7010 0bbe 53ec 0abe
00000260: 5976 efbd dd8c 2dbe 5aa1 8e3d 0b5e 49be
00000270: fc2f 523d b901 41be df99 3a3e 2147 43be
00000280: 4ec2 2e3e adf1 9bbb 34e5 0b3e cfe6 233e
00000290: 0d1b 743d ba7f 10be 437b 52bd c2ff 3a3d
000002a0: bfb0 1bbe f2a5 afbd af34 d93d 44db 1338
000002b0: 2b82 653d 1ae0 ff3d 74e9 51bd 03e8 ce3d
000002c0: c188 643c c950 b63c d2dd 2cbe 6355 b0b9
000002d0: 8bc5 403e c08f 97bc 39bb 433e e6ad 4d3e
000002e0: 882e 243e 7bf4 dabd 06e3 173e 0d59 263e
000002f0: 0df3 313e c433 9bbd 493e 203e 8f03 053e
00000300: bd6e 863d aace b63c a129 6fbd fe2e ba3d
00000310: 884f 3e3e 7304 d83c be90 f4bd 1b6f 203e
00000320: f864 1f3e f85e 3ebe 6704 2abe 47df 123e
00000330: 816c dcbc f6ab b73d 1ec5 003e 168b 97bc
00000340: 2a72 a33c 2928 cb3d de01 85bd 7416 f13d
00000350: 4a22 5ebd 073b 29be 84fb 0abe fed3 b8bc
00000360: b04d 963b fba0 b03c 9b0b 193e 9e0b 1bbd
00000370: c1c2 843d a2f1 31be 3005 bebd 10e8 28be
00000380: 1b07 a0bc c199 a33d a99c b8bc e196 3c3e
00000390: 2230 2ebe c700 03be a447 693d 1462 973d
000003a0: dd11 d0bd aacb fcbd 4751 f5bd 825b 333e
000003b0: d5e7 ce3d f95c 033e 086d 013e db5e acbd
000003c0: 79cd cb3d 82df 173e 23a7 00bd 5ee2 0fbd
000003d0: e243 47be cc5a e83d 74ce 8a3d 7c6c c5bc
000003e0: 0094 193d 028c 413d 281e 3ebd 8db3 1e3c
000003f0: fc95 7fbb 8a78 1bbe cac3 363e 76fe d4bd
0.1492921 0.17232464 0.16735195 0.055250917 -0.065220244 0.14428382 -0.035053812 -0.13249752
-0.13670343 -0.0075434567 -0.015550744 0.07588909 -0.14133863 -0.13753183 -0.04368852 -0.075769596
-0.14033753 0.059877623 0.038803328 -0.13991344 -0.07773278 0.15412371 -0.020720445 0.127791
0.12347082 0.011492292 0.031284295 0.020776726 0.1164196 -0.18955073 0.14313717 0.022240264
-0.08842077 0.15201008 0.03228523 -0.16920166 -0.20285265 0.01657566 -0.18322907 0.06843418
-0.14489551 0.013812404 0.15678215 0.060309548 0.16643834 -0.03610705 -0.14483555 -0.029242355
0.093574256 -0.13922438 0.175863 -0.14803591 -0.12344536 -0.08903069 -0.13194843 0.0816389
0.120742925 0.09965224 0.024246793 -0.01839204 0.032629684 -0.039522562 0.13254926 -0.00069508306
-0.18789788 -0.18658149 -0.03537449 -0.0078089624 -0.10943636 -0.18416531 -0.07074395 0.15308663
-0.031996008 -0.1803825 -0.0012373304 -0.12094095 0.06977436 0.1433673 0.12945284 0.06087755
-0.11878279 -0.13727139 -0.100848146 -0.014182469 -0.075606555 -0.19266407 0.0016108741 0.0023488551
-0.095506154 -0.18346415 0.17773917 -0.057794552 -0.10367161 0.07782246 -0.16778718 0.058402073
0.16605137 -0.15173951 -0.15251054 -0.11112717 -0.0171289 0.032273274 -0.09732126 -0.06070398
-0.16132683 0.07920631 -0.15219292 -0.084215924 -0.034170553 0.17029451 0.14626254 -0.10198051
-0.18355525 0.17804867 -0.04611185 -0.08005413 -0.14152138 0.083151974 -0.119393796 0.088512726
-0.18571974 -0.08716844 -0.04205936 -0.08018601 -0.07619237 0.11675274 -0.13786481 -0.06540998
0.12269253 -0.1155182 -0.047673993 0.05537565 0.17748763 -0.19310006 0.14978357 0.032132555
0.15308309 -0.19299498 -0.091961734 -0.16617276 0.01623729 -0.035400942 -0.03512219 -0.12725277
-0.011317579 -0.1734723 0.059748173 0.055042528 0.04651012 -0.11979557 -0.13580489 -0.13566713
-0.11692495 -0.16948266 0.06964369 -0.19664781 0.051315293 -0.18848313 0.1822276 -0.19070102
0.17066309 -0.0047590346 0.13661653 0.16006015 0.05959611 -0.14111224 -0.051387083 0.045654066
-0.15204142 -0.085765734 0.10605752 3.5251738e-05 0.05603234 0.12493916 -0.05124803 0.101028465
0.01394862 0.022255318 -0.16881493 -0.00033632954 0.18825357 -0.018501163 0.19114389 0.20085868
0.16033375 -0.10691162 0.14832696 0.16244908 0.17377873 -0.07578233 0.1564876 0.12989639
0.065640904 0.022315342 -0.05838931 0.09090994 0.18585026 0.026369309 -0.1194167 0.15667383
0.1556586 -0.18590915 -0.16603242 0.14342986 -0.026907207 0.08968346 0.12575194 -0.018498939
0.019951899 0.09919769 -0.06494497 0.11771861 -0.05423192 -0.16526423 -0.13572508 -0.022562023
0.004586898 0.021561136 0.14945833 -0.037852876 0.06482459 -0.17377332 -0.09278333 -0.16494775
-0.019534638 0.079883106 -0.022535639 0.1841693 -0.17010549 -0.12793265 0.056953087 0.07391754
-0.10159657 -0.12343533 -0.11978393 0.17515376 0.10102812 0.12828435 0.12639248 -0.0841653
0.099513 0.14831355 -0.031409394 -0.03512799 -0.19459489 0.11345443 0.06777659 -0.024099581
0.03749466 0.047252662 -0.046415478 0.009686363 -0.003899931 -0.15182701 0.17848125 -0.10400097

bias f4 [32]
00000000: 0ec7 96bd 9dcd 38be a3d1 be3d c803 0fbe
00000010: 4fad fcbd a476 2ebe 50ec 753a ceed 223e
00000020: 9846 03be 2b1e b73d 52f5 133e 98fa 333e
00000030: eff0 20be a898 2e3e 2e1f 83bd 391c 8dbd
00000040: 0580 983c 2f2f a53c 944d bdbd 2fec 0a3e
00000050: badb 27be 9c64 c63d 5fb5 f63d 9275 36be
00000060: c68a cabd f070 13be 8b88 84bd bb62 1e3e
00000070: 98a2 0abe 0be1 263e 1433 86bc 7396 633d
-0.073621854 -0.18047185 0.09317329 -0.13966286 -0.123377435 -0.17037445 0.00093812216 0.15911028
-0.12819898 0.08941301 0.14449051 0.17576063 -0.15716909 0.17050421 -0.064024314 -0.06890149
0.018615732 0.0201641 -0.092433125 0.1356666 -0.16392413 0.096871585 0.120463125 -0.17818287
-0.0988975 -0.14398551 -0.06471356 0.1546735 -0.13538587 0.16296785 -0.016381778 0.0555634

weight f4 [64, 32, 3, 3]
00000000: e355 6bbd df7c d7bb e196 313c 889a 643d
00000010: 40cd d83c 4924 ff3c 1897 d5bc e959 583d
00000020: a9f2 e73c 2c24 183d 7ed8 5bbd 8b6c f1bc
00000030: fc3d 5cbd ffa7 4ebd 7295 2c3c 4489 f1bc
00000040: a4ab 0dbd 0dc2 9d3c 1261 3cbd 0999 383c
00000050: 779e 493d 0f20 8abc 0604 563d b7af 643c
00000060: 51fc 023c c815 8fbc e573 4bbd c30c 2dbd
00000070: c4e9 47bd ea67 6dbc 52dc 38bc bf77 01bd
00000080: 4e00 f53b 5baf cdbc 71f5 95bc 1c01 063c
00000090: a69a 0d3d 305e 5a3b 284f ddbc f9fc 26bc
000000a0: 0e24 393d 7dcb 28bd 6e12 24bd 4030 00bc
000000b0: 0536 17bd eeeb debc b6eb fbbc 6562 043d
000000c0: c188 ae3c 3ae1 663c 7f3b 5cbb 478d 03bc
000000d0: bc70 25bb 79a0 6bbd 620e 20bd be71 4dbd
000000e0: 8f09 4e3c c4ad f6bc 8440 183b ed38 2f3c
000000f0: 70ef 4c3d 339b 1bbd 0faf c43b 9987 3abd
00000100: 7e10 7bbd 7edf c1bc d9a4 4bbd 7dd7 5c3d
00000110: 3623 d93c a9b0 093d 67d5 01bd 1834 d5bc
00000120: 4466 263c d91d ab3c 0f8c d3bc 3fa8 743c
00000130: 9d01 11bc ed4d 0bbd 40ef 8aba a4a8 183d
00000140: da94 2fbd 23c8 4abd caa0 32bd 648c 0e3d
00000150: 3bc7 1a3d 5461 33bd d3de 98bc a5e9 773d
00000160: 84af 75bc 366d 88bc edc4 843c 7bd5 dcbc
00000170: b8fc e5bc a8fa 393d 51c5 143d d243 b63c
00000180: 2544 9a3c 8aed e93c e862 17bd 0057 213d
00000190: ad0c 143d da2e 0cbc bc76 c2bc 822c b93c
000001a0: 4cf6 fe3c 9879 d03c 26e8 103d e4d5 eebc
000001b0: 614a 58bd 1567 c5bc c524 49bc 84d7 603d
000001c0: fde6 54bd b116 e1bc 3067 ea3c 6aac 5bbd
000001d0: 75f3 243b fa70 f03c fef1 143d 3fc2 d7bc
000001e0: 5e8b ea3c d6b6 203d a190 3b3d d1a4 143d
000001f0: b610 4a3d 4059 6e3d 619b 153d 7a8a e83c
00000200: 1f00 d43a f117 123d 5a90 7a3c fff2 0c3d
00000210: 03a0 f73a 755b 303d 30fc 473d 1c46 203d
00000220: 182d b63c 7741 a8bc 6923 4fbd ac65 4cbd
00000230: a2ff 14bd 9324 39bd e195 07bd 52cb 4abd
00000240: dc94 d8bc 5b62 75bd a016 aebc 38fb 033d
00000250: b0d6 13bc 1068 32bd 495e f93c 5b18 e43c
00000260: e88a bebc a0f4 70bc 8f18 ecbc 3e80 81bc
00000270: ec5f 1bbd 06e4 f8bb 796c 2ebd 5b7f c2bb
00000280: e414 4e3d 5831 4c3d bbe9 f4bc a002 55bd
00000290: c470 9fbb edcd 943c 2b53 00bb 4dbd 053d
000002a0: b121 413d 349a 24bd 113b e63b 1a2b 2cbd
000002b0: 5bfb 1b3d 7d60 65bd 8294 42bd c01c 1b3d
000002c0: 22b9 1dbc a1ed a83c ba71 e5bc b518 193d
000002d0: 54b5 e63c 429c 9abc dcdf 1a3d ed38 7f3d
000002e0: 2061 55bd bdac 863d fdca 5a3c 9f36 033d
000002f0: 6b62 1a3d 3fb3 78bd 6519 00bd 492e f5bb
00000300: 3472 04bd fb31 f23c 4217 713c 47d0 5d3b
00000310: fa9a 4ebd aadd 37bd 0ee0 153d 2bc2 e2bb
00000320: fdf7 68bd 03a5 9b3c 7308 d4bc 6173 34bc
00000330: 491f 613d e0a0 e73c 6cab 643d 4d8b 733d
00000340: c373 1abd 9cd9 b43c 52f3 5dbd 5ecc 06bd
00000350: 2394 9e3c 2779 37bd ba6d 533d ec98 093d
00000360: 70fa 413d 7d25 0fbd f899 3abd b230 73bd
00000370: 2f4f a13c 8d4d 15bd c434 403d 1cfc 6bb9
00000380: 6190 3b3d d6f1 50bd fcae 7abd 90d8 6cbd
00000390: 21ca 4cbc 1c19 6d3d 2406 f13c a02c da3c
000003a0: 4df4 453c a43c 173d c1aa 74bc bcd0 21bd
000003b0: 25ec 8e3c 2446 0d3d e099 c5bc 7ca4 393b
000003c0: 3892 443d b6b0 173d 1661 65bc 8fb5 00bd
000003d0: 025b 123d fc4b 81bd 4138 3cbd 1389 c6bc
000003e0: 14d8 113d 3fd0 6f3c 784f 95bc 3809 233d
000003f0: 5f07 50bd 61b2 1abd 4ead 403c dd50 79bc
-0.057454955 -0.006576165 0.010839195 0.055811435 0.026465058 0.031145232 -0.026073024 0.05282012
0.028313952 0.03714387 -0.05367326 -0.029470703 -0.05377005 -0.050453182 0.010533677 -0.029484399
-0.034587517 0.01925757 -0.04599101 0.011266955 0.04922339 -0.01686099 0.05224993 0.013957909
0.007994727 -0.01746644 -0.049671073 -0.0422485 -0.04880692 -0.014490107 -0.011282997 -0.03160834
0.007476843 -0.02510803 -0.018305512 0.008178975 0.034571312 0.00333203 -0.027015284 -0.010192149
0.0452004 -0.041209687 -0.04005664 -0.007824004 -0.03691675 -0.02721211 -0.030752044 0.0323204
0.021305444 0.014091784 -0.0033604798 -0.008029289 -0.0025244197 -0.057526086 -0.039076217 -0.0501573
0.012575521 -0.030112155 0.0023231814 0.0106947245 0.050033033 -0.037989806 0.006002314 -0.045539472
-0.061295025 -0.02366614 -0.049717758 0.053916443 0.026506048 0.033615742 -0.031697657 -0.026025817
0.010156218 0.020888256 -0.025823621 0.014932691 -0.008850482 -0.034009863 -0.0010599867 0.037270203
-0.042866565 -0.04950727 -0.04361037 0.034801856 0.037787657 -0.04379399 -0.018660938 0.060525555
-0.0149954595 -0.016653638 0.016207183 -0.026957264 -0.028074607 0.04540506 0.036320988 0.022249136
0.018831322 0.02855565 -0.03695956 0.03938961 0.0361449 -0.008556092 -0.023738258 0.02260423
0.031123303 0.025448605 0.035377644 -0.029154725 -0.05280531 -0.024097005 -0.012276833 0.05489303
-0.0519781 -0.02747664 0.028613657 -0.053631224 0.0025169526 0.029350746 0.036363594 -0.026337741
0.028630909 0.039236866 0.045792226 0.036289994 0.049332343 0.058190584 0.036525134 0.028386343
0.0016174352 0.035667364 0.015293205 0.034411427 0.0018892292 0.04305597 0.04882449 0.03912936
0.0222383 -0.020539029 -0.05057088 -0.04990165 -0.036376603 -0.045200896 -0.03310192 -0.049510308
-0.02643817 -0.059908252 -0.021251023 0.032222003 -0.009023353 -0.043556273 0.030440466 0.027843645
-0.023259595 -0.014706761 -0.028820304 -0.015808221 -0.037933275 -0.007595542 -0.042583916 -0.005935592
0.05031289 0.049851745 -0.029896608 -0.052004457 -0.0048657376 0.0181646 -0.0019580822 0.032651234
0.04715127 -0.040186122 0.0070260842 -0.042033292 0.038081508 -0.05600022 -0.04750491 0.037869215
-0.009626659 0.020621123 -0.02800833 0.037377078 0.028162636 -0.018873338 0.037811145 0.062310148
-0.05209458 0.06575916 0.01335406 0.032034513 0.037691515 -0.060717817 -0.031274218 -0.0074823243
-0.032335475 0.029564848 0.014715018 0.0033846067 -0.050440766 -0.04488913 0.03659063 -0.0069201193
-0.056877125 0.018999582 -0.025882935 -0.011013837 0.054961476 0.028274953 0.055827543 0.05945902
-0.037708055 0.02207642 -0.054187126 -0.032909743 0.019357746 -0.044793274 0.051618315 0.033593103
0.047357976 -0.03494786 -0.045556992 -0.05937261 0.019691078 -0.03645091 0.04692532 -0.00022505264
0.045791987 -0.051011883 -0.061202034 -0.057823718 -0.012499363 0.057885274 0.029421873 0.026632607
0.012082172 0.036923066 -0.014933289 -0.039505705 0.017446587 0.03449072 -0.024121225 0.00283268
0.047991008 0.03703376 -0.014000198 -0.031423148 0.035731323 -0.06313321 -0.045952085 -0.024235284
0.03560646 0.014637052 -0.01822637 0.039803714 -0.05078828 -0.03776777 0.011760069 -0.015217033

bias f4 [64]
00000000: 79de 60b9 176d 54bd 5bd0 b63c 52aa 22bc
00000010: cb63 0fbc 9cd1 33bd 28d4 0c3c 178b 8e3d
00000020: 77bf 223d 222c 3e3d 4aa1 363d b994 68bc
00000030: 2a43 31bd 6b2c 8c3c e933 95bc 6ba1 253d
00000040: 5c7d 213d 1d03 dbbc 626f 1c3d 6102 50bd
00000050: d30c 393d 84b3 afbc 22c8 5c3d 1799 eabc
00000060: f497 27bc 0375 a7ba 2dc0 023d de75 c8bc
00000070: eca5 843c 7bb2 d4bc fb59 723b 4585 143d
00000080: 8cfb 06bd e00f 643d dd29 133d ca28 2dbd
00000090: 23cf 213d ed8e 643d 7837 843d 2e2f 85bc
000000a0: 182f 7fbc 04e5 d53c ee8b 0e3b cda6 4bbc
000000b0: fb00 e03c 299d 38bd 1bf5 a8bc 7e9f 903d
000000c0: d9f9 81bc 8367 b33c 6c27 aabc c5cc 193d
000000d0: ba45 19bd 9d8d e0bc 0195 02bb 9255 373b
000000e0: 6e76 37bc 3e9f 4c3d eaac 87bc b9ba 3a3d
000000f0: 58cb 873d c2fe 113d 5d03 86bc 7a59 8e3c
-0.00021445182 -0.05186185 0.022316149 -0.009928303 -0.00875182 -0.04390107 0.008595504 0.06960123
0.039733376 0.046428807 0.04458741 -0.0141956145 -0.043276943 0.017111024 -0.01821323 0.040437143
0.039426193 -0.026734883 0.03819216 -0.05078352 0.045178246 -0.021447904 0.0539018 -0.028637452
-0.0102291 -0.0012775961 0.031921554 -0.024470266 0.016192399 -0.025964012 0.0036979902 0.03625991
-0.032954738 0.055679202 0.035928596 -0.042275228 0.03950418 0.055800367 0.06455892 -0.016257849
-0.015575193 0.02611018 0.0021750885 -0.012429905 0.027344218 -0.045071755 -0.020624688 0.07061671
-0.015866207 0.021899944 -0.020770751 0.0375488 -0.037420012 -0.027411276 -0.001992524 0.0027974588
-0.011197669 0.049956553 -0.016561944 0.04558823 0.066305816 0.035643347 -0.016359026 0.01737665

weight f4 [128, 64, 3, 3]
00000000: 656c dd3c 475c 59bb 0303 b43c 11d8 493d
00000010: 5f4a 75ba 367b 163d f6ea 10bb 4574 ac3c
00000020: d355 213c c18b 193c 266a 193d 49fa 103d
00000030: 50bd 0bbc 6547 f6bb 0ac5 6f3b e965 333d
00000040: 8219 fa3c d938 d6bc b4ce f4bb 791b 2bbc
00000050: 0896 74bc 890f 94bc 7b14 adbc eb0a ae3c
00000060: 08cf ca3c e911 58bc 83b6 383d 1955 513d
00000070: ad5e 343a f27a 833c cf82 eb3c 2180 d83c
00000080: c41b c13c 6bd6 22bc cec7 b5bc 21a6 6d3c
00000090: ab5f 643c 46cc 1d3d 8662 ac3b fcd4 1a3d
000000a0: ef49 333d 4d09 d63c 8f2b 853c f9bf 5d3d
000000b0: 097b e43c 245f 2b3d 530f 633b ee80 8b3b
000000c0: e602 b0bc 0623 67bb f605 be3c 29e6 f0bc
000000d0: d2e5 b33c 3595 56bc 3892 2a3c 3590 cfbc
000000e0: 91b5 f93c 47d1 283d 6e36 9bbc a725 793c
000000f0: 4074 bcbc 6218 babc f709 7c3c 699d cf3c
00000100: e22d 7abb 34cb 4d3c b41e 56bc a984 00bc
00000110: 370d 873c 84fb 42bb bf52 423c 3e15 4b3d
00000120: 2951 013b 96be 163d 87a8 e4bc 6f40 c93c
00000130: e935 6ebc cf3d 33bc 5996 dabc 4f7c 6f3c
00000140: 1dec 31bc 368b 203d accd 0f3c 3c03 aa3b
00000150: cdb2 c13c 8477 2abc 2494 83bc 3757 8dbc
00000160: 8205 be3c 12bd b3bc cb1c ad3b 91d2 993b
00000170: 018f e2ba c46a ddbc 1cfc 58bc d582 4a3d
00000180: fb42 183d 8252 5c3b 28c7 e0bb 459f 383d
00000190: 086f cdbc 7ae1 75bb d9be 4e3d 586c a8bc
000001a0: b6fc 133d 560b 543d 9ed1 cfbc 2228 bc3c
000001b0: 9ed8 833c 93a3 4cbc a5ef 68bb dc9b b5bc
000001c0: 792f 503d e8af 4a3d f19e 86bc a393 2a3d
000001d0: 3430 1d3d f358 f5bc 49e9 2d3d e510 b33c
000001e0: 859a 95bc c4f7 233d dedf bb3b fb09 5d3d
000001f0: a304 a03c cc10 313c e873 adbb 9479 ffbc
00000200: eab1 c6bc e855 443b 8ed8 543c 1df0 193d
00000210: b15b 7bbb 9f14 eebc 7b6b a93c 8dfe 0e3d
00000220: ab46 1cbc 4eed 313d b2fa 083d 6a97 033c
00000230: ffb5 b33c ed13 353d 774d afbc 798c 783c
00000240: f4e4 b03c e5e3 743c cd80 2f3d 9894 96bc
00000250: b0ac 863c 7962 413d 38a8 153d c41f ef3c
00000260: f359 a0bc 1b10 b23c 5ace 67bb 7dd9 4a3d
00000270: 4ce4 8d3c 241f 8dbc 09c7 6f3c 4834 e0bc
00000280: cfe6 bf3b b420 bfbc 522e 383d d65f bdbc
00000290: 4b51 91bb 1573 353a 376d e93b 5a34 423d
000002a0: cb64 343d dbfc 773c 681e f43c 73f5 33bc
000002b0: 1613 f93c 9ee5 9ebb 9fb5 fbbc c8a4 083d
000002c0: 9c9e 74bb eb9a 5dbc 7805 01bd 65bc 98bc
000002d0: 1e42 be3c c267 87bc e6e6 483d e663 17ba
000002e0: c324 46bc 9100 be3b 6209 663b 974b c3bc
000002f0: eacf a5bb c3f6 573c a313 aabb 8ead 51bb
00000300: 210e 95bc f681 28bc e2f9 05bc 738e 4e3c
00000310: ca9c 4d3d 4d26 eb3b 20ea 8abc b603 b1bc
00000320: 421b 0abc b806 21bb ea33 c63c 057c 333c
00000330: d5b1 e63c 63d7 ddbc e2eb 593c 5382 91bc
00000340: c778 383d 0f23 aa3b eccd 1c3d f2a5 babc
00000350: bf24 473d 3229 cfba 598f 223d 08e4 493d
00000360: e4f9 9d3c 37ab a23c ca0d 103d 7408 e93c
00000370: d494 cd3c 0728 593d 70a2 2c3d e91f f1bb
00000380: 7488 083c 2400 d1bc b7cf 87ba 9f90 e6bb
00000390: 82c7 44bc 0b77 f83c 901e e93c 3247 a33c
000003a0: b04d 4d3d 1598 c23c 1d42 2ebb d0ff 413d
000003b0: 26fa 583d c178 903c 9fbb e73c 4496 373d
000003c0: 5237 943c 9aa7 6fbc 714d 99bc 94eb cfbc
000003d0: 1fce debc f514 873c 3cb1 543d 15e9 d6bc
000003e0: 5a64 bd3c f59f a83b 916a 4bbc e9f1 e13b
000003f0: 74f6 393c c8bb 023d 4d26 553d 44fb 0dbc
0.027029226 -0.0033166574 0.021974092 0.049278323 -0.00093570905 0.036738597 -0.0022112704 0.021051535
0.009847122 0.009371699 0.037454747 0.03539494 -0.008529022 -0.007515835 0.003658595 0.04379836
0.030529741 -0.026150154 -0.00747093 -0.010443562 -0.014928348 -0.018073814 -0.02112793 0.02124544
0.024756923 -0.013187864 0.04509593 0.051106546 0.0006880563 0.016049836 0.028748898 0.026428284
0.02357281 -0.009938817 -0.02219 0.01450494 0.013938825 0.03852489 0.0052607683 0.037800774
0.04377168 0.026127482 0.016256122 0.054138158 0.027890699 0.04183878 0.0034646585 0.004257313
-0.021485757 -0.0035268678 0.023196202 -0.029406624 0.021960173 -0.013097097 0.010410838 -0.025337318
0.030482085 0.041215207 -0.018946853 0.015206731 -0.023004651 -0.022716705 0.015383235 0.025343614
-0.003817432 0.012560654 -0.013068844 -0.007844129 0.016485794 -0.0029751966 0.0118605485 0.049580805
0.0019732213 0.03680285 -0.027912391 0.024566857 -0.01453922 -0.010940029 -0.02668302 0.01461704
-0.010859516 0.039195262 0.008777063 0.005188374 0.02364483 -0.010404471 -0.01606185 -0.017253501
0.023195986 -0.021940742 0.0052829734 0.004694291 -0.001728505 -0.027028449 -0.013243701 0.049441177
0.037173253 0.0033618514 -0.006859679 0.045073766 -0.025077358 -0.0037518428 0.050474975 -0.020559475
0.036129676 0.051768623 -0.025368508 0.022968356 0.016094502 -0.012490171 -0.003554323 -0.022169046
0.050826523 0.049484164 -0.016433211 0.041644704 0.03837605 -0.02994964 0.042458806 0.021858642
-0.018262157 0.04003121 0.005733474 0.053964596 0.019533461 0.010807227 -0.005293358 -0.031185903
-0.024254758 0.002995843 0.012991084 0.037582505 -0.0038354213 -0.029062567 0.020681133 0.034910727
-0.009538333 0.043439202 0.033442207 0.008031705 0.021937368 0.044208456 -0.021399243 0.01517021
0.021593548 0.014946912 0.042847443 -0.018381402 0.016439766 0.04721305 0.03653738 0.029189952
-0.019574141 0.021736195 -0.0035370798 0.04952382 0.017320774 -0.017226763 0.014634856 -0.02736868
0.005856372 -0.023331024 0.04496605 -0.023116987 -0.0044347397 0.00069217506 0.007123615 0.047413208
0.044041436 0.015135969 0.029799655 -0.010983813 0.030404609 -0.00484915 -0.030726252 0.033360273
-0.0037325984 -0.013525705 -0.031499356 -0.018644521 0.023224887 -0.016528968 0.049048327 -0.0005775079
-0.012093726 0.0057984074 0.0035100807 -0.023839755 -0.0050601857 0.013181391 -0.005190329 -0.0031994316
-0.018195214 -0.010284891 -0.0081772525 0.012607205 0.050198354 0.0071761967 -0.016957343 -0.021608215
-0.00842935 -0.0024570655 0.024194676 0.0109548615 0.028160969 -0.027080243 0.013300868 -0.017762339
0.045037057 0.0051921676 0.03828232 -0.022784207 0.04861903 -0.0015805124 0.03968749 0.049289733
0.019284196 0.019857032 0.0351694 0.028446414 0.02509538 0.05301669 0.0421471 -0.0073585403
0.008333314 -0.025512762 -0.0010361586 -0.007036283 -0.012010457 0.030330202 0.028456956 0.01993141
0.050122917 0.023754159 -0.00265897 0.047363102 0.052972935 0.017635705 0.028287707 0.04482104
0.018092785 -0.014627362 -0.018713685 -0.025380887 -0.027197896 0.016489485 0.051926836 -0.026234189
0.02311914 0.0051460215 -0.012415544 0.006895293 0.011350263 0.031917363 0.05203848 -0.008665863

bias f4 [128]
00000000: 02a8 c43c 1d44 29bc ee96 7abb 431a 08bd
00000010: c55d 1dbd 1c6d 603c 430b 693c 1b27 1f3c
00000020: fe24 53bc 83aa 393d e260 24bb 1f34 e9bc
00000030: f682 453d 75c1 b5ba 5777 26bc be38 cd3c
00000040: 2fce de3c f3a4 36bd a07a 133d 82a6 963c
00000050: 2a5a f43c b5db 1bbc 3acc cf3b 0afd 25bc
00000060: 1662 123d 607b 2cbd 63c2 99bc 6cf0 4ebc
00000070: 57df 033c 75c0 6ebc 7511 04bb 384d 1cbb
00000080: df9e eb3c 52f7 c53c 158f 0f3b 1acc 01bd
00000090: 1aee 82bc 7160 fc3c 0c5f 8dbc 343d 11bd
000000a0: 8a73 37bd deca 3fbc dc40 453d dfd9 c43b
000000b0: dd04 893a 13c3 dd3b 08aa 8e3b eba5 e3bc
000000c0: 8eb1 f73c fb09 acbc a7f1 fe3c e105 7cbc
000000d0: 2440 1d3d d8be 94bc 6007 7e3c 4b26 cebc
000000e0: b2b0 0c3d a375 e9bb d754 efbc f105 273d
000000f0: 70ad 423d d55f b33b 7365 d2bc 3fdc 293c
00000100: 5bb7 533d b2c4 34bc 685b 6ebc c7a0 393d
00000110: 5622 9fbc 6b46 da3b 6be5 93bc 1492 a23c
00000120: 165f 2e3d 5c24 c8bb 5b65 96bc 41dd 00bc
00000130: b344 3e3d cb21 833b 7d3a c7bc 9bb2 873c
00000140: a78a 94bc 4acb 4ebc 3158 923b 4c33 d2bc
00000150: 5950 e4bc ef44 42bc 0331 3bbc ee4d 173c
00000160: dd56 573d af5d d2bc 67d8 cabc 4c5c d2bc
00000170: 6e0d 49bc 1022 b7bc b464 60bc 23fa 91bc
00000180: 075d 00bb 58c8 233d 101c a9bb 34f0 b43c
00000190: acc1 883c 7c77 b1bc 46c3 b23c 2eee 373d
000001a0: 619b 3fbd 999b 73bc f88d 8abb 03b2 b8bc
000001b0: c236 033d 5c47 683c 4caa 2dbc 1932 5abc
000001c0: 91db a13c 0e7d 23bd bd11 023c 642c 943c
000001d0: a752 d93c a150 043d e891 48bc 36e8 db3c
000001e0: 79d0 0d3d 425d 553d 4628 8bbb ac92 2ebc
000001f0: 3fc6 0e3d a1df c6bb c785 713c 5d8c f6bc
0.024005894 -0.010331181 -0.0038236934 -0.03322817 -0.038419504 0.013697889 0.014223876 0.009713913
-0.012887238 0.04532863 -0.002508216 -0.028467236 0.048220597 -0.0013866859 -0.010160289 0.02505147
0.027197925 -0.0445909 0.036005616 0.018389944 0.02982815 -0.009512831 0.0063414844 -0.01013113
0.035738073 -0.042109847 -0.018769449 -0.012630563 0.008048854 -0.0145722525 -0.0020152007 -0.0023849737
0.02876228 0.024165783 0.0021905352 -0.031688787 -0.015982676 0.030807706 -0.017257236 -0.03545876
-0.04478792 -0.011706082 0.048157558 0.0060074176 0.001045372 0.0067676394 0.0043537654 -0.027789077
0.030236032 -0.021000853 0.031121088 -0.015382261 0.038391247 -0.018157408 0.015504688 -0.025164744
0.034348197 -0.007124619 -0.02921526 0.04077715 0.047528684 0.0054740706 -0.02568314 0.010367452
0.051688533 -0.011033224 -0.01454816 0.045319345 -0.019425552 0.0066612265 -0.018053731 0.019845046
0.04257115 -0.00610785 -0.018358877 -0.007865251 0.046452235 0.004001831 -0.024319882 0.016564658
-0.01813252 -0.01262171 0.0044660796 -0.025659226 -0.027870344 -0.011857255 -0.0114252595 0.0092348885
0.052573074 -0.025679437 -0.024761392 -0.025678776 -0.012271268 -0.02235511 -0.0136958845 -0.01781947
-0.0019586699 0.039985985 -0.005160816 0.022087194 0.016693912 -0.02166342 0.02182163 0.04490488
-0.04677904 -0.01486864 -0.00422835 -0.02254582 0.032034643 0.01417717 -0.010599684 -0.013317608
0.019758018 -0.039914183 0.007938799 0.018087573 0.02652867 0.032303456 -0.012241818 0.026844125
0.034622643 0.05209089 -0.0042467443 -0.0106550865 0.03485703 -0.006069139 0.014741368 -0.030096227

weight f4 [128, 1152]
00000000: fcb6 3d3c 5a53 8c3c 353e 34bc 634b b23c
00000010: ec19 d8bc 9ae9 3e3c 1b40 7ebc 9e4d a03c
00000020: f6db d1bc b401 b4bb 1072 8ebb 93c0 bbbc
00000030: bab2 443c bc6e 9ebc 5e0f e1bb 1a19 183c
00000040: 99b2 783c 092c b03b bca2 d5bc 75bc b4bc
00000050: dcc7 65bc d784 04bd 952a f0bc 94dd 9bbc
00000060: 66a7 8c3c d902 873c a07d 18bc df65 f6bc
00000070: 852a 2a3c b4e6 f63b 94b9 10bc a103 00bd
00000080: aaed 3abc c51a b3bc da66 babb 93f6 bd3c
00000090: 555a 94bc 333e 4fbc 736d ecbc 07f9 0d3c
000000a0: 7352 22bc 7312 93bc 81b6 953b ab1c ecbc
000000b0: de1d cb3b a70e bb3c 605e 08bb a962 0cbd
000000c0: 9b88 d93b 5cde c9bc 9aee bf3b 2b42 7abc
000000d0: 3ee9 193c 6bed ab3c 72ac 02bd c729 d5bc
000000e0: 5c97 84bc 51b9 e8bc 4844 9a3c 4810 2abc
000000f0: c9a4 e8bc 764c 263c 3bd7 90bc 2f75 d8bc
00000100: e318 d03b e345 84bc 51dd 3a3c 8601 0f3c
00000110: 07c0 06bc 64db d7bc 6756 3d3c a1e6 60bc
00000120: 36f2 85bc 49c1 f5bc 5a20 3ebc 7cb7 7c3c
00000130: 3545 f2bb 4b32 7dba 70f7 223c c38b 243c
00000140: 2de7 853c 3ded bebc 1532 b3bc d467 0abd
00000150: f1e3 04bd f1e2 923c 183b 943b 290f ebbc
00000160: 353f d0bc 875c 3ebb b379 6fbc ce08 bdba
00000170: 687c 5ebc b146 223c e458 d23b 92e2 7b3c
00000180: 53b3 27bc 50e0 eabc c177 a03b 529c 9cbb
00000190: 01a4 6b3c 13c9 e1bc 8589 81bc cc21 d4bb
000001a0: 73a7 bdb9 c86c 64bc b026 b4bb bfd6 36bc
000001b0: b56e 3dba 56f0 b23b 401d 823c 6898 383c
000001c0: 78cc fcbc 8676 d6bc 8d4e 04bd 4b02 97bc
000001d0: 9085 2a3c 2e47 1a3c 866c 2f3c 5dd3 98bc
000001e0: 7723 72bc 2d99 573c 2f79 2ebc 3722 0ebb
000001f0: 3e8b 1d3c dbf6 01bd 16e4 d53b cd32 c4bb
00000200: d605 debb 96f0 553a 48cd 713c 02c6 aebc
00000210: 0b8f 303c f19b c3bc 9775 103b f011 02bd
00000220: bdcd 7d3c 3e0f 353c b81d 02bd 219f 1d3b
00000230: 8d37 72bc 391b 933c 6b85 493c 8578 883c
00000240: 09dc 513b 0226 89bc d4ae 023b a140 373a
00000250: f2f6 203a 75a0 efbc f2d8 0fbc 8ad6 71bc
00000260: 2fe3 5ebc d55a 87bb ad55 903c a406 05bd
00000270: 7309 98bc d3b5 3fbc 5afc 9bbc bb84 efbc
00000280: a9c3 1fbc 1f44 4dbc a499 cd3b bcb4 0dbc
00000290: 1ec6 b3bc f2ff 0fbd 1319 02bd faa7 d8bc
000002a0: b47c e8bc dba9 1abc 85e6 36bc 3dbc 0bbc
000002b0: e777 54bc 844f f8bc 2389 ab3c a916 88bc
000002c0: 7f6b d0bc 67e5 173c cdd1 99bb 396c c0bc
000002d0: 1cee 0abb e5bc dbbb a384 da39 0b44 01bd
000002e0: f208 37bc 5a5f ebbc 2190 5abc e668 83bc
000002f0: 392b 9e3c 2e0e 16bd 78bd 9abc 4b7b 0dbd
00000300: 1f8c 03bd d7d0 0fbc 4c22 debc 6017 1e35
00000310: 1460 8ebc 8516 15bc cbfc f23b 276c 96bc
00000320: 627b 963c bac4 0fbd 2df3 febb 6724 51bc
00000330: f366 e8bb 516c 07bb dbd3 103c 9c3c bb3c
00000340: 4a53 7fbb 57bc ff3b de44 61bc f8cf 833c
00000350: 43a4 883c a4cd dbbc cb0c 44bc f285 09bd
00000360: ca98 8fba dcd1 9b3c dfb6 493c df67 d4bc
00000370: 62ab 15bd 0a0b 0bbd d46f 00bd 7efd 43bc
00000380: bc25 8cbc b337 bfbc 025f 993c f0e2 2dbc
00000390: 61c8 06bd 2cac bb3b e030 27bb c73d 333b
000003a0: 0dce ab3c 3855 d4bc 9ba9 373c 6641 a13c
000003b0: 36c1 e1bc 8638 bdbc d296 c43b 0850 d23b
000003c0: e106 1b3b 20ec 03bd 8db5 b1ba ea14 28bc
000003d0: 5691 aebc 168f 423b dd4d 1b3c 0fd6 26bb
000003e0: d609 35bc 57a8 00bd b448 89bc 2eb8 403c
000003f0: 00be 12bb aec0 2c3c e896 5b3b fda4 823c
0.011579271 0.017129589 -0.011001159 0.021764463 -0.026379548 0.011652375 -0.015518214 0.01956826
-0.02561758 -0.005493367 -0.0043470934 -0.022918975 0.012005502 -0.019339912 -0.006868287 0.009283328
0.0151793 0.005376343 -0.026078574 -0.02206252 -0.014024701 -0.03235325 -0.02931718 -0.019026555
0.017169666 0.01648085 -0.009307295 -0.030077873 0.010386114 0.007534826 -0.008833308 -0.03125346
-0.011409203 -0.02186335 -0.0056885304 0.023188865 -0.01810948 -0.012649107 -0.028860783 0.00866533
-0.009907353 -0.017953133 0.0045688753 -0.028822264 0.006198629 0.022834135 -0.0020808205 -0.034273777
0.006638599 -0.024642162 0.005857301 -0.015274565 0.009393988 0.020987233 -0.031902738 -0.026020898
-0.016185455 -0.028408678 0.018831387 -0.010379858 -0.028398888 0.010150066 -0.017680755 -0.026423065
0.006350623 -0.016146606 0.011405305 0.008728391 -0.008224494 -0.02634973 0.011556244 -0.013726861
-0.016350847 -0.029999392 -0.011604393 0.015424605 -0.007393504 -0.00096586783 0.009946689 0.010043087
0.016345585 -0.023306483 -0.021874467 -0.033790424 -0.032443944 0.01793048 0.004523646 -0.028693752
-0.025420764 -0.002904685 -0.014616418 -0.001442218 -0.013579465 0.009904549 0.006419288 0.015373843
-0.010235625 -0.028671414 0.0048970883 -0.004779377 0.014382363 -0.0275617 -0.015812645 -0.0064737555
-0.0003617365 -0.013941951 -0.005497776 -0.011159598 -0.00072262745 0.005460779 0.015883088 0.011266805
-0.030859217 -0.026179563 -0.032301474 -0.01843371 0.01040782 0.009416385 0.010707026 -0.018655473
-0.014778963 0.013159079 -0.01064901 -0.0021687874 0.009615717 -0.03172956 0.006527434 -0.0059875012
-0.006775598 0.0008161155 0.0147584155 -0.021334652 0.010776292 -0.02387807 0.0022042745 -0.031755388
0.015490946 0.011050997 -0.031766623 0.0024051147 -0.014783752 0.017957317 0.012299876 0.01665903
0.003202202 -0.016741756 0.0019940631 0.00069905265 0.00061403133 -0.029251317 -0.008779751 -0.014760623
-0.0136039695 -0.004130701 0.017618978 -0.032477036 -0.018559193 -0.011701065 -0.019041229 -0.029238096
-0.009751239 -0.012528448 0.006274419 -0.008649047 -0.021945056 -0.035156198 -0.031762194 -0.026447285
-0.028379776 -0.009439911 -0.011163359 -0.008528766 -0.01296804 -0.030311354 0.020939415 -0.016612368
-0.025441883 0.009271002 -0.0046941997 -0.023489105 -0.0021199053 -0.0067058676 0.00041679022 -0.03155903
-0.011171566 -0.02873199 -0.013340027 -0.01604123 0.01930772 -0.036634617 -0.018889174 -0.03454141
-0.03211605 -0.008777819 -0.027115963 5.88936e-07 -0.017379798 -0.009099607 0.007415389 -0.018362118
0.01836938 -0.035099722 -0.0077804537 -0.012765027 -0.0070923506 -0.0020663927 0.008839573 0.02285605
-0.0038959556 0.0078044343 -0.013749329 0.016090378 0.016679889 -0.026831456 -0.011965941 -0.033575006
-0.0010955569 0.019020967 0.012311666 -0.025928436 -0.036540397 -0.033946075 -0.031356648 -0.011962293
-0.017107837 -0.02334199 0.018722061 -0.010613188 -0.03290594 0.0057273116 -0.002551131 0.0027350055
0.020972276 -0.025919542 0.011209871 0.019684505 -0.02755795 -0.023098242 0.0059994245 0.006418232
0.0023655223 -0.03220761 -0.0013558135 -0.010258893 -0.021309536 0.0029687337 0.009479013 -0.0025457179
-0.011049708 -0.03141054 -0.0167583 0.011762662 -0.002239108 0.010543985 0.0033506695 0.015947813

bias f4 [128]
00000000: 01e5 0d3c 4267 693c 6140 bcbc d23f 33bc
00000010: 6c82 08bd f279 eb3a 6895 50ba 029e 56bb
00000020: 2a53 57bc 05ef 9a3c 9361 093d 311e a63c
00000030: 32cb 693c b401 7bbc 4d45 ae3c 6c4f 48bc
00000040: 9269 863c bc3e 093d 0aa0 cd39 b0ab 59bc
00000050: aab8 103b 76b5 b8bc 2938 503c 0fc9 2a37
00000060: 52df 0d3d 446a c5bc b54c 0fbb 27d8 983b
00000070: 2105 20bb 7cd1 1c3d a3ff 293b 02ef d3ba
00000080: 6cec e6bc ff42 b83c 99a3 013d b593 9b3c
00000090: 43a7 8e3c 8090 c6bb 53eb 033d 4030 243d
000000a0: 44d7 fcbc ba17 c53c 2656 bcbb edc9 193d
000000b0: a62a 1d3d f761 313c 916b 553b 4050 40bc
000000c0: 8c2a f93c 906f faba 2b2b cdba 5708 8cba
000000d0: 8724 79bc 5b30 cdbc 4370 d23b fbae 393c
000000e0: 8ef6 f73c 9fe7 11bd 40b9 e3bc af0b eb3c
000000f0: 930b 243d c951 273d 725c 7abc 9259 403c
00000100: 0506 2bbc 2409 96bc e99a 753c 4419 94ba
00000110: d378 b23b 3a76 d0bb 8788 d1bb 6857 59bc
00000120: c449 223c c6c0 ae3c 97d1 aabc 4471 7bbc
00000130: d069 3e3b 8f67 0c3c e3ab 863c 55db 8abc
00000140: 450e 7c3c ad98 443c 7413 b63b 09cd 80bc
00000150: 3c19 743c 97fb aebc e87f a0bc d8de 0f3d
00000160: 4690 da3c dcac ca3c f606 14bc 8b23 723c
00000170: e2d7 e0bb d3a0 d53b e64a 873c dbb3 f33c
00000180: 0ce7 e13b 5375 46bc cf3c 0b3d fad5 743c
00000190: bf7c 6f3c 1a4a b7bb cda3 273c b705 973c
000001a0: 084b 7dbb 7478 28bc 163b 4fbc d325 88bc
000001b0: 8c7d d7bb f3ec a2bc bbdf 74ba 2636 8a3c
000001c0: 2398 d0bc 571a 6fbc 0950 50bc 94f1 04bd
000001d0: 3863 083c fbe2 43bc c5b5 cc3c 72b7 0cbd
000001e0: 4c79 803c a3db 0fbc b69c d83a 15bd 2b3c
000001f0: a515 d3bc 7bc1 ec3c 1f7f c03c 2933 e93c
0.008660556 0.01424581 -0.022979917 -0.010940509 -0.033327505 0.001796542 -0.00079568336 -0.0032747989
-0.013142386 0.018912802 0.03354032 0.020278068 0.014269637 -0.01532023 0.02127328 -0.012225967
0.016407762 0.033507094 0.00039219885 -0.013285562 0.0022082725 -0.022547465 0.012708702 1.0179602e-05
0.034636803 -0.024098523 -0.002186579 0.0046644392 -0.002441712 0.038285717 0.0025939725 -0.0016169252
-0.028188907 0.022492884 0.03165016 0.01899133 0.017413741 -0.006059706 0.032206845 0.040085077
-0.030864365 0.024059165 -0.0057475744 0.037546087 0.03837075 0.010826579 0.0032565335 -0.011737883
0.030415796 -0.0019106735 -0.0015653124 -0.0010683638 -0.015206463 -0.025047472 0.006422074 0.0113332225
0.030268934 -0.03562128 -0.027798295 0.028692095 0.0400501 0.04084948 -0.01528083 0.011740105
-0.010438447 -0.018314905 0.014990547 -0.0011299034 0.0054465323 -0.00636175 -0.006394449 -0.013265468
0.009905282 0.021332156 -0.020851893 -0.015346829 0.0029054768 0.008569612 0.016439384 -0.016950289
0.0153842615 0.011999291 0.005556518 -0.015722768 0.0148985945 -0.021360202 -0.01959224 0.03512463
0.026680123 0.024740629 -0.009034863 0.014778982 -0.0068616727 0.006519416 0.016515207 0.029748848
0.006893998 -0.012112933 0.03399354 0.014943594 0.014617144 -0.0055935504 0.010231924 0.018435342
-0.0038649458 -0.0102826245 -0.0126483645 -0.016619598 -0.0065762457 -0.019888377 -0.00093412 0.016871523
-0.02546317 -0.014593682 -0.012714394 -0.03245695 0.008324437 -0.011955972 0.024989018 -0.034354635
0.015682839 -0.008780393 0.0016526196 0.010482092 -0.025767157 0.028900852 0.023498116 0.028466778

weight f4 [1, 128]
00000000: 35ea 2f3d 983b 793d 2fb1 913d 635f 103c
00000010: ebf9 293d 4e0c 90bd 5fe7 533c 8af7 563d
00000020: 3c52 063d a469 13bd 6318 c6bd 2aef 933c
00000030: 51cc f0bc 7e38 e03c d6bf e6b9 b16a 1fbd
00000040: 292a 9b3c 9d4e 0ebd c193 283d 8d02 45bd
00000050: ccbc c4bd 57a5 133d 9993 87bd 6df8 443c
00000060: 210f 4dbd 66a2 d63c 46fc 85bd 31c9 093d
00000070: 3c08 9cbd 1079 cabc e5b0 56bc 6b82 c63c
00000080: 1698 0a3d 4512 8d3c 2341 08bd ed25 c03c
00000090: fecb fa3c 6e50 fd3c c6ea a7bc c61c bdbd
000000a0: 935f 723d b031 68bd 837e 873d 9e76 74bd
000000b0: b512 babd c262 bebd 5448 80bd 56c9 943d
000000c0: 7bc5 52bd 2f1e e5bc 3628 7bb9 d3f6 acbd
000000d0: 7e04 b0bc bcc0 b53c dd18 3dbb 19b1 e2bc
000000e0: e51e 36bd 2dbb 043d fa9c 97bb 47a6 bcbc
000000f0: ac5e 92bd 7a05 9cbd 4edb 8e3b b390 97bc
00000100: 5ce5 3ebd 7e30 023d 00cb 72bd be37 81bc
00000110: 1f0c 84bd 611f e4bc 92de 12bb 69de 563d
00000120: 6c4e a8bd f518 83bd cd48 bc3b 563a edbc
00000130: dfeb 063d 82b3 853d 71e0 8bbd 8d0e f53c
00000140: 94af 513d 92d0 163d 1d74 b6bd cf9e a53d
00000150: cb39 4a3c aa29 eabb 4813 e13c 3d24 86bd
00000160: b958 b7bd dd60 08bd f7bc 25b7 0a1f 9c3d
00000170: 8c37 f0bc d96c 783d 94c8 083d 984f e9bc
00000180: c369 713b 8846 8a3d a492 b0bc 4ad3 c9bd
00000190: 0b02 81bd 86f7 673d eed4 babd d612 94bc
000001a0: 9932 25bd e82b 2cbd 9273 303c a61b 8d3d
000001b0: dc0e babd bcf7 cbbb bc68 f2bc a985 c9bd
000001c0: b819 593d 9b04 1e3d c1af fb3c 7c93 c33c
000001d0: d35e 253d e5c6 d73c 1b12 6fbc aac6 9f3d
000001e0: 47a8 70bd f3d2 4e3d 35b4 353c 7fcb 88bc
000001f0: 30b5 763c 818b 64bd af33 47bd a3d7 87bc
0.042947967 0.06084785 0.07113873 0.0088118045 0.041498106 -0.07033597 0.012933581 0.052482165
0.03279327 -0.03598942 -0.0967262 0.018058378 -0.0293943 0.027370688 -0.00044011947 -0.03892011
0.018941002 -0.03474294 0.041156534 -0.048098136 -0.09606323 0.036046352 -0.06619949 0.01202212
-0.050063256 0.026200484 -0.06542258 0.033639137 -0.07618758 -0.02471593 -0.013103698 0.02423211
0.033836447 0.017220626 -0.033265244 0.023455584 0.03061485 0.03092214 -0.02049769 -0.09234004
0.059173178 -0.05668801 0.06615927 -0.059683435 -0.09085599 -0.0929618 -0.062637955 0.07264964
-0.051457863 -0.027968494 -0.00023952205 -0.084455155 -0.021486517 0.02218663 -0.002885393 -0.027672337
-0.044463057 0.032405067 -0.0046268674 -0.023028506 -0.071469635 -0.07618232 0.0043596392 -0.018501615
-0.046605453 0.031784527 -0.059275627 -0.01577365 -0.064476244 -0.027846994 -0.0022410494 0.0524582
-0.08218083 -0.064012446 0.005745983 -0.02895848 0.032939788 0.06528379 -0.06829918 0.029914165
0.051192835 0.036820002 -0.089088656 0.08086931 0.0123428805 -0.00714608 0.027475014 -0.06549881
-0.089524694 -0.0332955 -9.878763e-06 0.07623108 -0.029323362 0.06065068 0.03339441 -0.028480336
0.003683672 0.06751734 -0.021554299 -0.09854753 -0.06299218 0.05663254 -0.09122644 -0.018075388
-0.040331457 -0.04203406 0.010769742 0.06890039 -0.090848655 -0.0062246006 -0.029590957 -0.09839947
0.053003043 0.03857861 0.030723454 0.023874037 0.040373635 0.026339957 -0.014591719 0.07801564
-0.05875423 0.050494146 0.011090328 -0.016698597 0.015057847 -0.055797104 -0.048633274 -0.016582316
